…
e=0.9, shear=0.0, perspective=0.0, flipud=0.0, fliplr=0.5, mosaic=1.0, mixup=0.15, copy_paste=0.3
ClearML: run 'pip install clearml' to automatically track, visualize and remotely train YOLO  in ClearML
Comet: run 'pip install comet_ml' to automatically track and visualize YOLO  runs in Comet
TensorBoard: Start with 'tensorboard --logdir C:\Mansura\UTI\Version-Final\YOLOv9-c', view at http://localhost:6006/
Overriding model.yaml nc=80 with nc=7

                 from  n    params  module                                  arguments                     
  0                -1  1         0  models.common.Silence                   []                            
  1                -1  1      1856  models.common.Conv                      [3, 64, 3, 2]                 
  2                -1  1     73984  models.common.Conv                      [64, 128, 3, 2]               
  3                -1  1    212864  models.common.RepNCSPELAN4              [128, 256, 128, 64, 1]        
  4                -1  1    164352  models.common.ADown                     [256, 256]                    
  5                -1  1    847616  models.common.RepNCSPELAN4              [256, 512, 256, 128, 1]       
  6                -1  1    656384  models.common.ADown                     [512, 512]                    
  7                -1  1   2857472  models.common.RepNCSPELAN4              [512, 512, 512, 256, 1]       
  8                -1  1    656384  models.common.ADown                     [512, 512]                    
  9                -1  1   2857472  models.common.RepNCSPELAN4              [512, 512, 512, 256, 1]       
 10                -1  1    656896  models.common.SPPELAN                   [512, 512, 256]               
 11                -1  1         0  torch.nn.modules.upsampling.Upsample    [None, 2, 'nearest']          
 12           [-1, 7]  1         0  models.common.Concat                    [1]                           
 13                -1  1   3119616  models.common.RepNCSPELAN4              [1024, 512, 512, 256, 1]      
 14                -1  1         0  torch.nn.modules.upsampling.Upsample    [None, 2, 'nearest']          
 15           [-1, 5]  1         0  models.common.Concat                    [1]                           
 16                -1  1    912640  models.common.RepNCSPELAN4              [1024, 256, 256, 128, 1]      
 17                -1  1    164352  models.common.ADown                     [256, 256]                    
 18          [-1, 13]  1         0  models.common.Concat                    [1]                           
 19                -1  1   2988544  models.common.RepNCSPELAN4              [768, 512, 512, 256, 1]       
 20                -1  1    656384  models.common.ADown                     [512, 512]                    
 21          [-1, 10]  1         0  models.common.Concat                    [1]                           
 22                -1  1   3119616  models.common.RepNCSPELAN4              [1024, 512, 512, 256, 1]      
 23                 5  1    131328  models.common.CBLinear                  [512, [256]]                  
 24                 7  1    393984  models.common.CBLinear                  [512, [256, 512]]             
 25                 9  1    656640  models.common.CBLinear                  [512, [256, 512, 512]]        
 26                 0  1      1856  models.common.Conv                      [3, 64, 3, 2]                 
 27                -1  1     73984  models.common.Conv                      [64, 128, 3, 2]               
 28                -1  1    212864  models.common.RepNCSPELAN4              [128, 256, 128, 64, 1]        
 29                -1  1    164352  models.common.ADown                     [256, 256]                    
 30  [23, 24, 25, -1]  1         0  models.common.CBFuse                    [[0, 0, 0]]                   
 31                -1  1    847616  models.common.RepNCSPELAN4              [256, 512, 256, 128, 1]       
 32                -1  1    656384  models.common.ADown                     [512, 512]                    
 33      [24, 25, -1]  1         0  models.common.CBFuse                    [[1, 1]]                      
 34                -1  1   2857472  models.common.RepNCSPELAN4              [512, 512, 512, 256, 1]       
 35                -1  1    656384  models.common.ADown                     [512, 512]                    
 36          [25, -1]  1         0  models.common.CBFuse                    [[2]]                         
 37                -1  1   2857472  models.common.RepNCSPELAN4              [512, 512, 512, 256, 1]       
 38[31, 34, 37, 16, 19, 22]  1  21556682  models.yolo.DualDDetect                 [7, [512, 512, 512, 256, 512, 512]]
yolov9-c summary: 962 layers, 51013450 parameters, 51013418 gradients, 238.9 GFLOPs

Transferred 1448/1460 items from yolov9-c.pt
AMP: checks passed 
optimizer: SGD(lr=0.01) with parameter groups 238 weight(decay=0.0), 255 weight(decay=0.0005), 253 bias
…
