…
.5, cls=0.5, dfl=1.5, pose=12.0, kobj=1.0, label_smoothing=0.0, nbs=64, hsv_h=0.015, hsv_s=0.7, hsv_v=0.4, degrees=0.0, translate=0.1, scale=0.5, shear=0.0, perspective=0.0, flipud=0.0, fliplr=0.5, bgr=0.0, mosaic=1.0, mixup=0.0, copy_paste=0.0, auto_augment=randaugment, erasing=0.4, crop_fraction=1.0, cfg=None, tracker=botsort.yaml, save_dir=C:\Mansura\UTI\Version-Final\YOLOv5x\training.1
Overriding model.yaml nc=80 with nc=7

                   from  n    params  module                                       arguments                     
  0                  -1  1      8800  ultralytics.nn.modules.conv.Conv             [3, 80, 6, 2, 2]              
  1                  -1  1    115520  ultralytics.nn.modules.conv.Conv             [80, 160, 3, 2]               
  2                  -1  4    309120  ultralytics.nn.modules.block.C3              [160, 160, 4]                 
  3                  -1  1    461440  ultralytics.nn.modules.conv.Conv             [160, 320, 3, 2]              
  4                  -1  8   2259200  ultralytics.nn.modules.block.C3              [320, 320, 8]                 
  5                  -1  1   1844480  ultralytics.nn.modules.conv.Conv             [320, 640, 3, 2]              
  6                  -1 12  13125120  ultralytics.nn.modules.block.C3              [640, 640, 12]                
  7                  -1  1   7375360  ultralytics.nn.modules.conv.Conv             [640, 1280, 3, 2]             
  8                  -1  4  19676160  ultralytics.nn.modules.block.C3              [1280, 1280, 4]               
  9                  -1  1   4099840  ultralytics.nn.modules.block.SPPF            [1280, 1280, 5]               
 10                  -1  1    820480  ultralytics.nn.modules.conv.Conv             [1280, 640, 1, 1]             
 11                  -1  1         0  torch.nn.modules.upsampling.Upsample         [None, 2, 'nearest']          
 12             [-1, 6]  1         0  ultralytics.nn.modules.conv.Concat           [1]                           
 13                  -1  4   5332480  ultralytics.nn.modules.block.C3              [1280, 640, 4, False]         
 14                  -1  1    205440  ultralytics.nn.modules.conv.Conv             [640, 320, 1, 1]              
 15                  -1  1         0  torch.nn.modules.upsampling.Upsample         [None, 2, 'nearest']          
 16             [-1, 4]  1         0  ultralytics.nn.modules.conv.Concat           [1]                           
 17                  -1  4   1335040  ultralytics.nn.modules.block.C3              [640, 320, 4, False]          
 18                  -1  1    922240  ultralytics.nn.modules.conv.Conv             [320, 320, 3, 2]              
 19            [-1, 14]  1         0  ultralytics.nn.modules.conv.Concat           [1]                           
 20                  -1  4   4922880  ultralytics.nn.modules.block.C3              [640, 640, 4, False]          
 21                  -1  1   3687680  ultralytics.nn.modules.conv.Conv             [640, 640, 3, 2]              
 22            [-1, 10]  1         0  ultralytics.nn.modules.conv.Concat           [1]                           
 23                  -1  4  19676160  ultralytics.nn.modules.block.C3              [1280, 1280, 4, False]        
 24        [17, 20, 23]  1  11028709  ultralytics.nn.modules.head.Detect           [7, [320, 640, 1280]]         
YOLOv5x summary: 493 layers, 97206149 parameters, 97206133 gradients, 246.9 GFLOPs

TensorBoard: Start with 'tensorboard --logdir C:\Mansura\UTI\Version-Final\YOLOv5x\training.1', view at http://localhost:6006/
Freezing layer 'model.24.dfl.conv.weight'
AMP: running Automatic Mixed Precision (AMP) checks with YOLOv8n...
AMP: checks passed 
train: Scanning C:\Mansura\UTI\data\DATA-UTI-LR\Data\train\labels.cache... 4256 images, 0 backgrounds, 0 corrupt: 100%|██████████| 4256/4256 [00:00<?, ?it/s]
…
