…
.5, cls=0.5, dfl=1.5, pose=12.0, kobj=1.0, label_smoothing=0.0, nbs=64, hsv_h=0.015, hsv_s=0.7, hsv_v=0.4, degrees=0.0, translate=0.1, scale=0.5, shear=0.0, perspective=0.0, flipud=0.0, fliplr=0.5, bgr=0.0, mosaic=1.0, mixup=0.0, copy_paste=0.0, auto_augment=randaugment, erasing=0.4, crop_fraction=1.0, cfg=None, tracker=botsort.yaml, save_dir=C:\Mansura\UTI\Version-Final\YOLOv5s\training.1
Overriding model.yaml nc=80 with nc=7

                   from  n    params  module                                       arguments                     
  0                  -1  1      3520  ultralytics.nn.modules.conv.Conv             [3, 32, 6, 2, 2]              
  1                  -1  1     18560  ultralytics.nn.modules.conv.Conv             [32, 64, 3, 2]                
  2                  -1  1     18816  ultralytics.nn.modules.block.C3              [64, 64, 1]                   
  3                  -1  1     73984  ultralytics.nn.modules.conv.Conv             [64, 128, 3, 2]               
  4                  -1  2    115712  ultralytics.nn.modules.block.C3              [128, 128, 2]                 
  5                  -1  1    295424  ultralytics.nn.modules.conv.Conv             [128, 256, 3, 2]              
  6                  -1  3    625152  ultralytics.nn.modules.block.C3              [256, 256, 3]                 
  7                  -1  1   1180672  ultralytics.nn.modules.conv.Conv             [256, 512, 3, 2]              
  8                  -1  1   1182720  ultralytics.nn.modules.block.C3              [512, 512, 1]                 
  9                  -1  1    656896  ultralytics.nn.modules.block.SPPF            [512, 512, 5]                 
 10                  -1  1    131584  ultralytics.nn.modules.conv.Conv             [512, 256, 1, 1]              
 11                  -1  1         0  torch.nn.modules.upsampling.Upsample         [None, 2, 'nearest']          
 12             [-1, 6]  1         0  ultralytics.nn.modules.conv.Concat           [1]                           
 13                  -1  1    361984  ultralytics.nn.modules.block.C3              [512, 256, 1, False]          
 14                  -1  1     33024  ultralytics.nn.modules.conv.Conv             [256, 128, 1, 1]              
 15                  -1  1         0  torch.nn.modules.upsampling.Upsample         [None, 2, 'nearest']          
 16             [-1, 4]  1         0  ultralytics.nn.modules.conv.Concat           [1]                           
 17                  -1  1     90880  ultralytics.nn.modules.block.C3              [256, 128, 1, False]          
 18                  -1  1    147712  ultralytics.nn.modules.conv.Conv             [128, 128, 3, 2]              
 19            [-1, 14]  1         0  ultralytics.nn.modules.conv.Concat           [1]                           
 20                  -1  1    296448  ultralytics.nn.modules.block.C3              [256, 256, 1, False]          
 21                  -1  1    590336  ultralytics.nn.modules.conv.Conv             [256, 256, 3, 2]              
 22            [-1, 10]  1         0  ultralytics.nn.modules.conv.Concat           [1]                           
 23                  -1  1   1182720  ultralytics.nn.modules.block.C3              [512, 512, 1, False]          
 24        [17, 20, 23]  1   2118757  ultralytics.nn.modules.head.Detect           [7, [128, 256, 512]]          
YOLOv5s summary: 262 layers, 9124901 parameters, 9124885 gradients, 24.1 GFLOPs

TensorBoard: Start with 'tensorboard --logdir C:\Mansura\UTI\Version-Final\YOLOv5s\training.1', view at http://localhost:6006/
Freezing layer 'model.24.dfl.conv.weight'
AMP: running Automatic Mixed Precision (AMP) checks with YOLOv8n...
AMP: checks passed 
train: Scanning C:\Mansura\UTI\data\DATA-UTI-LR\Data\train\labels.cache... 4256 images, 0 backgrounds, 0 corrupt: 100%|██████████| 4256/4256 [00:00<?, ?it/s]
…
